…
='MS', freq='h', gpu=0, inverse=False, itr=2, label_len=1000, learning_rate=0.0001, loss='mse', lradj='type1', model='informer', n_heads=4, num_workers=0, output_attention=False, patience=3, pred_len=919, root_path='./data/ETT/', s_layers=[3, 2, 1], seq_len=1000, target='OT', train_epochs=60, use_amp=False, use_gpu=True, use_multi_gpu=False)
Use GPU: cuda:0
>>>>>>>start training : informer_MS_ft1000_sl1000_ll919_pl256_dm4_nh2_el1_dl512_dfprob_at5_fctimeF_ebTrue_dttest_0>>>>>>>>>>>>>>>>>>>>>>>>>>
Informer(
  (enc_embedding): DataEmbedding(
    (value_embedding): TokenEmbedding(
      (tokenConv): Conv1d(4, 256, kernel_size=(3,), stride=(1,), padding=(1,), padding_mode=circular)
    )
    (position_embedding): PositionalEmbedding()
    (temporal_embedding): TimeFeatureEmbedding(
      (embed): Linear(in_features=4, out_features=256, bias=True)
    )
    (dropout): Dropout(p=0.05, inplace=False)
  )
  (dec_embedding): DataEmbedding(
    (value_embedding): TokenEmbedding(
      (tokenConv): Conv1d(4, 256, kernel_size=(3,), stride=(1,), padding=(1,), padding_mode=circular)
    )
    (position_embedding): PositionalEmbedding()
    (temporal_embedding): TimeFeatureEmbedding(
      (embed): Linear(in_features=4, out_features=256, bias=True)
    )
    (dropout): Dropout(p=0.05, inplace=False)
  )
  (encoder): Encoder(
    (attn_layers): ModuleList(
      (0): EncoderLayer(
        (attention): AttentionLayer(
          (inner_attention): ProbAttention(
            (dropout): Dropout(p=0.05, inplace=False)
          )
          (query_projection): Linear(in_features=256, out_features=256, bias=True)
          (key_projection): Linear(in_features=256, out_features=256, bias=True)
          (value_projection): Linear(in_features=256, out_features=256, bias=True)
          (out_projection): Linear(in_features=256, out_features=256, bias=True)
        )
        (conv1): Conv1d(256, 512, kernel_size=(1,), stride=(1,))
        (conv2): Conv1d(512, 256, kernel_size=(1,), stride=(1,))
        (norm1): LayerNorm((256,), eps=1e-05, elementwise_affine=True)
        (norm2): LayerNorm((256,), eps=1e-05, elementwise_affine=True)
        (dropout): Dropout(p=0.05, inplace=False)
      )
      (1): EncoderLayer(
        (attention): AttentionLayer(
          (inner_attention): ProbAttention(
            (dropout): Dropout(p=0.05, inplace=False)
          )
          (query_projection): Linear(in_features=256, out_features=256, bias=True)
          (key_projection): Linear(in_features=256, out_features=256, bias=True)
          (value_projection): Linear(in_features=256, out_features=256, bias=True)
          (out_projection): Linear(in_features=256, out_features=256, bias=True)
        )
        (conv1): Conv1d(256, 512, kernel_size=(1,), stride=(1,))
        (conv2): Conv1d(512, 256, kernel_size=(1,), stride=(1,))
        (norm1): LayerNorm((256,), eps=1e-05, elementwise_affine=True)
        (norm2): LayerNorm((256,), eps=1e-05, elementwise_affine=True)
        (dropout): Dropout(p=0.05, inplace=False)
      )
    )
    (conv_layers): ModuleList(
      (0): ConvLayer(
        (downConv): Conv1d(256, 256, kernel_size=(3,), stride=(1,), padding=(2,), padding_mode=circular)
        (norm): BatchNorm1d(256, eps=1e-05, momentum=0.1, affine=True, track_running_stats=True)
        (activation): ELU(alpha=1.0)
        (maxPool): MaxPool1d(kernel_size=3, stride=2, padding=1, dilation=1, ceil_mode=False)
      )
    )
    (norm): LayerNorm((256,), eps=1e-05, elementwise_affine=True)
  )
  (decoder): Decoder(
    (layers): ModuleList(
      (0): DecoderLayer(
        (self_attention): AttentionLayer(
          (inner_attention): ProbAttention(
            (dropout): Dropout(p=0.05, inplace=False)
          )
          (query_projection): Linear(in_features=256, out_features=256, bias=True)
          (key_projection): Linear(in_features=256, out_features=256, bias=True)
          (value_projection): Linear(in_features=256, out_features=256, bias=True)
          (out_projection): Linear(in_features=256, out_features=256, bias=True)
        )
        (cross_attention): AttentionLayer(
          (inner_attention): FullAttention(
            (dropout): Dropout(p=0.05, inplace=False)
          )
          (query_projection): Linear(in_features=256, out_features=256, bias=True)
          (key_projection): Linear(in_features=256, out_features=256, bias=True)
          (value_projection): Linear(in_features=256, out_features=256, bias=True)
          (out_projection): Linear(in_features=256, out_features=256, bias=True)
        )
        (conv1): Conv1d(256, 512, kernel_size=(1,), stride=(1,))
        (conv2): Conv1d(512, 256, kernel_size=(1,), stride=(1,))
        (norm1): LayerNorm((256,), eps=1e-05, elementwise_affine=True)
        (norm2): LayerNorm((256,), eps=1e-05, elementwise_affine=True)
        (norm3): LayerNorm((256,), eps=1e-05, elementwise_affine=True)
        (dropout): Dropout(p=0.05, inplace=False)
      )
    )
    (norm): LayerNorm((256,), eps=1e-05, elementwise_affine=True)
  )
  (projection): Linear(in_features=256, out_features=1, bias=True)
  (activation): Sigmoid()
)
2052865
load train
train 4400000
train data loaded
load valid
val 8000
valid data loaded
load test
test 455024
test data loaded
train data train data 4
train data train data torch.Size([1000, 4])
train data train data torch.Size([1000, 4]) torch.Size([1000, 4]) torch.Size([1000, 4]) torch.Size([1000, 4])
train data train data torch.Size([1919, 4]) torch.Size([1919, 4]) torch.Size([1919, 4]) torch.Size([1919, 4])
…
