/mnt/ufs18/home-052/surunze/Project_codes_for_DanQ/transformer/output/
/mnt/ufs18/home-052/surunze/biostat_project/archive_1/transcheckkernels1200/dataset/
Now printing data_dir /mnt/ufs18/home-052/surunze/biostat_project/archive_1/transcheckkernels1200/dataset/
load valid
learner starting
learning rate is:  0.001
weight_decay=1e-08
learner constructed!
EncoderModel(
  (conv): Conv1d(4, 1024, kernel_size=(26,), stride=(1,))
  (pool): MaxPool1d(kernel_size=13, stride=13, padding=0, dilation=1, ceil_mode=False)
  (encoder): Encoder(
    (layers): ModuleList(
      (0): EncoderLayer(
        (self_attn): MultiHeadedAttention(
          (linears): ModuleList(
            (0): Linear(in_features=1024, out_features=1024, bias=True)
            (1): Linear(in_features=1024, out_features=1024, bias=True)
            (2): Linear(in_features=1024, out_features=1024, bias=True)
            (3): Linear(in_features=1024, out_features=1024, bias=True)
          )
          (dropout): Dropout(p=0.1, inplace=False)
        )
        (feed_forward): PositionwiseFeedForward(
          (w_1): Linear(in_features=1024, out_features=1024, bias=True)
          (w_2): Linear(in_features=1024, out_features=1024, bias=True)
          (dropout): Dropout(p=0.1, inplace=False)
        )
        (sublayer): ModuleList(
          (0): SublayerConnection(
            (norm): LayerNorm()
            (dropout): Dropout(p=0.1, inplace=False)
          )
          (1): SublayerConnection(
            (norm): LayerNorm()
            (dropout): Dropout(p=0.1, inplace=False)
          )
        )
      )
      (1): EncoderLayer(
        (self_attn): MultiHeadedAttention(
          (linears): ModuleList(
            (0): Linear(in_features=1024, out_features=1024, bias=True)
            (1): Linear(in_features=1024, out_features=1024, bias=True)
            (2): Linear(in_features=1024, out_features=1024, bias=True)
            (3): Linear(in_features=1024, out_features=1024, bias=True)
          )
          (dropout): Dropout(p=0.1, inplace=False)
        )
        (feed_forward): PositionwiseFeedForward(
          (w_1): Linear(in_features=1024, out_features=1024, bias=True)
          (w_2): Linear(in_features=1024, out_features=1024, bias=True)
          (dropout): Dropout(p=0.1, inplace=False)
        )
        (sublayer): ModuleList(
          (0): SublayerConnection(
            (norm): LayerNorm()
            (dropout): Dropout(p=0.1, inplace=False)
          )
          (1): SublayerConnection(
            (norm): LayerNorm()
            (dropout): Dropout(p=0.1, inplace=False)
          )
        )
      )
    )
    (norm): LayerNorm()
  )
  (pos_emb): PositionalEncoding(
    (dropout): Dropout(p=0.1, inplace=False)
  )
  (lay_predict): Sequential(
    (0): Linear(in_features=1024, out_features=919, bias=True)
    (1): Sigmoid()
  )
)
13654935
epoch= 0
fake print= 0.5673055648803711
fake print= 0.07661938667297363
fake print= 0.07590603828430176
fake print= 0.0735623836517334
fake print= 0.07379341125488281
fake print= 0.07385778427124023
fake print= 0.07378816604614258
fake print= 0.07359170913696289
fake print= 0.0737752914428711
fake print= 0.07383513450622559
…
